data.pth (torch, 6015 bytes, 6 tensors)

l1.weight f4 [10, 58]
000000 06 dd f6 3d 86 45 18 3f a2 c9 a5 be 45 a7 3d bf
       0.120538756 0.59481084 -0.32380396 -0.7408336
000010 aa c8 54 3f 61 29 ee be 46 36 ad bd 7e 49 f0 be
       0.8311869 -0.46515945 -0.084576175 -0.4693107
000020 e8 c5 1e 3d 20 f2 cc be e8 20 e0 3e 0d 8e 59 3d
       0.038762957 -0.40028477 0.43775105 0.053113986
000030 b4 a6 e7 3e de 6d 18 bc a8 3a 88 3e a7 48 7f 3e
       0.45244372 -0.009303538 0.2660725 0.24930058
000040 df 5b 11 bc 42 35 ee be 64 8c 99 3e 22 0c c9 3e
       -0.008872001 -0.46525007 0.29989922 0.3926707
000050 55 23 4f 3e 41 26 c6 3e 09 8d b1 3e d4 6c ec 3d
       0.20228322 0.3870106 0.34677914 0.11544195
000060 90 0f 13 3e 53 01 fc 3e 14 b4 93 3e 26 cb 0f 3f
       0.14361405 0.4921976 0.28848326 0.56169355
000070 e4 66 a8 3e 91 e2 e0 3e 33 cc 85 be 94 27 05 3f
       0.32891 0.43922856 -0.26132354 0.52013516
000080 52 73 7f bc 73 f7 a8 be f1 76 01 3f a4 25 8c 3e
       -0.015591459 -0.3300129 0.50572115 0.27372468
000090 f9 52 fa 3d bd 66 d6 3e 16 4e eb 3e ff 66 80 3d
       0.12222857 0.41875258 0.45958012 0.06269645
0000a0 a7 58 17 be 4c d8 8b be e0 1f b4 be ba 3b dc 3e
       -0.14779912 -0.2731346 -0.3518057 0.43014318
0000b0 c3 aa 6e 3e b8 9c bf 3e bb 9f 78 3e ed 25 d6 3e
       0.23307328 0.37424254 0.24279682 0.4182581
0000c0 19 43 0d 3f 4d bc 7c 3e 14 d5 a6 3e 36 7f 9a 3e
       0.5518051 0.24681206 0.3258444 0.3017518
0000d0 9f 98 80 3e 9e 61 43 3f eb c7 aa 3e 0f 84 d3 bd
       0.2511644 0.76320827 0.3335565 -0.103279226
0000e0 68 f0 23 3e 19 24 07 3f 83 9c 41 be 6d f3 f0 be
       0.16009676 0.52789456 -0.1890736 -0.4706072
0000f0 24 d9 01 3f c3 d5 2b 3f 67 0d 5b 3d f5 cb 2f 3f
       0.50721955 0.6712305 0.05347958 0.6867059
000100 97 a1 c3 3e 2e d3 cc 3e a3 05 0c 3f b0 ab 10 3f
       0.3820922 0.40004867 0.546961 0.56511974
000110 45 57 e9 be 48 0a 0d 3f d8 a9 e9 be 3e 26 07 3f
       -0.45574394 0.5509381 -0.45637393 0.5279273
000120 8b 1d 6e be e0 4a b4 be db 3e 35 3f ab 7e 20 3f
       -0.23253457 -0.35213375 0.70799035 0.6269328
000130 16 59 72 3e a5 10 84 be 93 23 23 be 5a ef 09 be
       0.23666796 -0.2579395 -0.15931539 -0.13470212
000140 f7 80 85 be 26 63 9e 3e 52 1b 51 3e 22 29 27 be
       -0.26074955 0.3093502 0.20420578 -0.16324285
000150 e2 10 8e 3e 2c 09 b2 be 08 47 b1 3e 8a 44 f9 be
       0.27747256 -0.34772623 0.34624505 -0.48685104
000160 f7 8a e7 3e 4e 91 a3 be fa 37 05 be 6d 97 fe 3e
       0.4522321 -0.31946796 -0.13009635 0.49724904
000170 47 ef 9b bd c1 28 7a 3e 93 ef 76 be 3e 1c 1e 3e
       -0.07613998 0.24429609 -0.24114828 0.15440461
000180 c4 e4 2f 3e a8 5b 23 3f ec bf 01 3f 1e 27 15 3f
       0.17177111 0.6381173 0.50683475 0.58262813
000190 00 8c b0 3e d2 7c ad 3e 84 d3 84 be 88 2b 02 be
       0.34481812 0.33884293 -0.25942624 -0.12711918
0001a0 1e 58 c4 3e 9f e2 50 be f5 f6 0e bf f0 37 98 be
       0.38348478 -0.20398949 -0.55845577 -0.29730177
0001b0 7e 7b e8 3d 53 1a 05 be e1 c9 60 be bc d5 4a 3b
       0.11351679 -0.12998323 -0.2195201 0.003095015
0001c0 e1 99 4f 3e 3e 4d 1f 3f 37 bb 1b 3f 23 19 98 bc
       0.20273544 0.6222724 0.6083254 -0.018566674
0001d0 7f ee fb 3e 4f 80 b1 3e 92 e4 80 be 3b 32 7b 3e
       0.49205396 0.34668204 -0.25174385 0.2453088
0001e0 22 aa 29 3e f2 da ce be 36 ac 1e bd c8 ec 0b be
       0.16568807 -0.40401417 -0.038738452 -0.13664544
0001f0 18 20 da be d9 71 41 be e9 7d 68 be 82 90 25 be
       -0.4260261 -0.18891086 -0.22704281 -0.16168407
000200 14 50 78 3e eb b0 20 3e cd 4b f2 3d 4c c3 d5 3d
       0.24249297 0.15692489 0.11830864 0.104376405
000210 f2 cd 17 3e bd ec c8 be 44 4e 11 bd e6 a3 b5 be
       0.14824656 -0.39243117 -0.03547503 -0.35476607
000220 d2 0d b4 3e 50 cc 37 be 86 13 81 be bb ea ab 3d
       0.35166794 -0.17949033 -0.25210208 0.08394381
000230 4d 62 31 be c5 d3 91 3d 56 c1 b6 be dc b6 16 bd
       -0.17322655 0.0712047 -0.3569438 -0.036795482
000240 ff 29 8e be 48 68 cf bd 9c bc 87 be dc 12 bd 3c
       -0.27766415 -0.10127312 -0.26511085 0.023080282
000250 d7 bb b1 3e 40 40 30 be 96 5e 93 3d 8e 9e 32 3e
       0.34713623 -0.1721201 0.07195775 0.17443296
000260 1a df a5 bd 49 12 19 3e a0 1a b8 bd 7c ce ce be
       -0.08099194 0.14948381 -0.08989453 -0.4039191
000270 37 83 0d be 84 11 86 3d 94 f4 92 be 6b 41 27 bf
       -0.13819586 0.065463096 -0.28702223 -0.65334195
000280 1b 90 2e 3d d3 81 4b bb d2 5e c9 bd 4c f4 10 3e
       0.0426179 -0.0031052723 -0.09832539 0.14155692
000290 a0 67 3c 3f 57 ad a0 3e 2c 3e 1f be 0a 20 6b 3e
       0.7359562 0.31382248 -0.1555106 0.2296144
0002a0 ac 45 c9 bc e7 09 67 3e bf 4b 00 bd ce b9 f7 bd
       -0.024569355 0.22562371 -0.031322237 -0.12095986
0002b0 58 b0 38 3e 32 11 b4 3d ee ea b9 3e a7 ff bb 3e
       0.1803602 0.08792342 0.3631205 0.36718485
0002c0 b1 0a e0 be d9 19 eb 3e df 8d 0d 3e 72 10 a1 be
       -0.43758157 0.45918158 0.13823651 -0.3145786
0002d0 39 8d 00 be 1e 21 9d be d5 2f da be 85 c4 1c be
       -0.12553872 -0.3068933 -0.42614618 -0.15309341
0002e0 fe 60 3f 3e d9 84 2a 3e d1 05 f8 bc ce 28 ad 3e
       0.18689343 0.1665224 -0.030276211 0.33820194
0002f0 4d df ce 3e cd a3 90 3e 08 69 e4 3e 6b 14 a1 be
       0.4040474 0.2824997 0.44611382 -0.3146089
000300 ae c4 81 be 9b 0f a1 be 0d 46 e6 3e 42 0f a1 be
       -0.25345367 -0.3145722 0.4497532 -0.31456953
000310 03 13 a1 be a8 53 f4 3e 2f 0a 4c 3d f2 a8 39 bb
       -0.31459817 0.47720075 0.0498144 -0.002832946
000320 7a b3 c1 be 1c 7d f1 3e 41 e2 5d be 3b 41 9f 3e
       -0.37832242 0.47165763 -0.2166834 0.31104454
000330 59 2c 9a be 09 2a 30 3d 18 56 b1 3e ea 44 a5 be
       -0.3011196 0.043008838 0.34635997 -0.3227914
000340 d0 71 ff 3e 07 3a 6a bd 35 7c 06 3e 74 16 e9 3c
       0.4989152 -0.057184245 0.13133319 0.02845309
000350 fc d3 0d be 2d 40 04 bf 22 8e b8 3d 4f 17 97 bd
       -0.13850397 -0.51660424 0.09011485 -0.07377493
000360 86 e7 79 be d9 98 34 bf 9a 71 3d 3e 4f ae b1 3e
       -0.24404725 -0.70545727 0.18500367 0.347033
000370 5e ed 99 be 98 22 b1 3e 1c 2f 64 3f 8e 33 d9 3e
       -0.3006391 0.34596705 0.89134383 0.42422146
000380 9b b9 64 be 99 18 5a 3e 21 25 7a 3e 27 f8 88 bc
       -0.22336428 0.21298446 0.24428226 -0.01671989
000390 a3 ae 5b bd f2 da eb 3d 53 00 8f 3e bf 7d 8c bb
       -0.053633343 0.1151637 0.27929935 -0.004287451
0003a0 d6 42 c2 bd 0a 83 0d be 5a 94 a3 3d dd 97 54 be
       -0.09485404 -0.13819519 0.0798728 -0.20761056
0003b0 6b 3b e2 3e 8f f7 9c 3e 0b 31 5a 3e c4 45 64 bd
       0.44185957 0.30657622 0.21307771 -0.055730596
0003c0 f3 2d 2e 3e 6d 62 d5 bd 10 39 45 be 72 40 fe be
       0.17009716 -0.10419164 -0.19260049 -0.49658543
0003d0 3d 34 bb 3e fc 3f 6a 3d d3 6b 77 be 85 64 39 be
       0.36563292 0.057189927 -0.24162225 -0.18104751
0003e0 fc d3 e3 bc 08 d6 ba 3e 7a 61 d9 bd c1 93 ce 3e
       -0.027811043 0.36491418 -0.10614295 0.40347102
0003f0 25 72 77 be f6 9b cb 3e bd e4 11 3f 1f 8a b8 be
       -0.24164636 0.39767426 0.5698965 -0.36042878

l1.bias f4 [10]
000000 1a 2d ee 3e be cf 27 3f 86 6b cf 3e 51 17 a1 3e
       0.46518785 0.65551364 0.4051172 0.31463102
000010 e0 00 2a 3f 90 2e 1a 3f eb 66 09 3f 29 bf e5 3e
       0.66407585 0.602273 0.53672665 0.44872406
000020 17 8e 75 3f 04 b6 02 3f
       0.95919937 0.51058984

l2.weight f4 [10, 10]
000000 50 df 17 3f 8e 33 11 bf 8b e7 01 be 61 a4 45 be
       0.5932512 -0.5671929 -0.12685983 -0.19300987
000010 38 3c c5 be 5f 53 10 bf 03 99 d6 3e eb 35 54 be
       -0.38522506 -0.56377214 0.41913614 -0.20723693
000020 ce c0 8e be 15 d0 fb 3e 67 9c b4 3e 47 08 3c 3f
       -0.27881473 0.49182191 0.35275576 0.7345013
000030 64 4f 8d bf 46 41 9c bf 27 d1 a1 3f 7e bc f3 3e
       -1.1039853 -1.220742 1.2641953 0.47604746
000040 68 62 8d 3f d4 a4 bc 3c bd 13 52 3f 4c 7b 0d bf
       1.1045656 0.023027815 0.8206137 -0.5526626
000050 07 e0 ae be f2 ee 09 bf 66 76 54 3f db 1b 4e 3e
       -0.34155294 -0.53880227 0.8299316 0.20127814
000060 58 52 dc 3d 9f 92 6f 3d 14 3f 81 3f e6 23 84 be
       0.10757893 0.05848944 1.0097375 -0.25808638
000070 cb 4e 93 3f f3 9a 32 3f 11 12 0f bf 2e c3 13 bd
       1.1508421 0.69767684 -0.5588694 -0.03607481
000080 db 25 27 3f 9c eb 21 3f b5 5c 6a be 8e e7 83 3f
       0.6529214 0.63250136 -0.22886927 1.030504
000090 4b 94 1f bf fe 7d ad be f2 52 9d 3f 2d 03 03 be
       -0.6233565 -0.33885187 1.2290938 -0.1279418
0000a0 b1 0b b4 3f b3 3d 02 bf 4d a8 0a 3f 66 4c 45 3f
       1.4066068 -0.50875396 0.54163057 0.770697
0000b0 2e 9b 05 be 65 7e 24 3f c5 44 80 3f f8 27 39 be
       -0.13047478 0.6425536 1.0020987 -0.18081653
0000c0 13 32 de bd 2a 95 2f 3f 66 94 0c 3f 84 8f ca be
       -0.10849395 0.6858698 0.5491394 -0.3956262
0000d0 33 f6 30 3f c6 1b 78 3f fc 76 9f 3e 65 9c 81 3f
       0.6912567 0.9691738 0.31145465 1.0125853
0000e0 3c 9d 83 bf a6 21 8e 3f 6c 00 e9 3d d3 44 9d be
       -1.0282359 1.1104019 0.113770336 -0.3071657
0000f0 d9 42 94 bf 53 dc 8d 3f 7d 1f 09 bf 7b dd 0e be
       -1.15829 1.1082863 -0.5356367 -0.13951676
000100 73 01 db bb 23 b0 23 3f ea 1e 27 be 85 6c 8d 3f
       -0.0066835224 0.6394064 -0.16320387 1.1048743
000110 8e c0 bf 3c 84 98 74 3f e0 3c 09 3d d0 37 11 3f
       0.023407247 0.9554522 0.03350532 0.5672579
000120 92 3c 3b 3f a3 57 73 3e 08 4a 75 3f b9 a2 41 bf
       0.731393 0.237639 0.9581609 -0.7563892
000130 66 ea 4e bf f9 2f 43 3b 3a eb 3a 3f c1 f3 dd 3e
       -0.80826414 0.0029783233 0.7301518 0.43350032
000140 44 8c 1d 3f 9d 54 0f bf e5 e6 35 3e bc 3d 21 3e
       0.61542153 -0.55988485 0.1776386 0.15746206
000150 7a 97 b6 3c 0f b9 3c bf 71 9b f8 3e e6 9d 01 be
       0.022289027 -0.73719877 0.48556092 -0.1265789
000160 0d 1c 50 bf 14 6d fe 3e 4e 3b 9d 3e 35 73 10 3e
       -0.812928 0.49692595 0.30709308 0.14106448
000170 49 9e 95 3d 6b 9f 46 bf bf bc 77 3f cd 03 19 3f
       0.07305581 -0.77587 0.9677238 0.59771425
000180 5f 42 b2 be 6f 74 f9 3e 91 dd 21 3f 6a 15 66 bf
       -0.34816262 0.48721644 0.6322871 -0.89876425

l2.bias f4 [10]
000000 9b 8b 92 3c 88 e4 2a 3f 7c 0e b8 3d 3a c1 ce 3e
       0.017888835 0.6675496 0.08987138 0.40381795
000010 35 e6 b4 3e 31 28 5e 3e b8 08 50 3e 6a e1 27 3f
       0.35331884 0.2169502 0.20315826 0.6557833
000020 50 f7 16 3e 35 43 b0 3d
       0.1474278 0.08606569

l3.weight f4 [9, 10]
000000 63 b0 09 3f 7b 62 57 bf a4 ab 8b 3e bf 54 d4 be
       0.5378477 -0.84134644 0.2727939 -0.41470906
000010 fb 3a 25 3f ad 37 40 bf d3 11 3a bf 6c a5 f3 be
       0.6454312 -0.75084955 -0.7268345 -0.47587144
000020 35 77 32 3f e9 9a 36 bf 00 ce ac be 38 5c 6f bf
       0.69713145 -0.71330124 -0.33750916 -0.9350009
000030 ec 9d 92 3e cb 35 11 3e cc 52 01 bf 30 5e 8e 3e
       0.2863611 0.14180677 -0.50516963 0.27806234
000040 d0 18 d3 3e 6d 3c f6 3c 99 4d 97 be f6 84 34 bf
       0.41229868 0.03005811 -0.2955139 -0.7051538
000050 e1 bb bf be ab 58 6d bf f4 d1 8f bf ce ee 80 3e
       -0.37448028 -0.9271342 -1.1235948 0.25182194
000060 7a 94 1c 3f 80 7e 2f 3f 56 d3 3c bf 70 8f 56 bf
       0.6116406 0.685524 -0.73759973 -0.8381262
000070 7d 1a 1a bf 2c 4d 1d bf 8b 62 70 bd ec cf cd 3e
       -0.6019667 -0.6144588 -0.058687728 0.40197694
000080 91 05 f5 be 33 92 2c 3f 31 8d ba bf cf 41 e4 3b
       -0.4785581 0.6741058 -1.4574338 0.006965853
000090 e5 ba 92 3c 94 d0 12 be df ac f4 be c2 48 ed 3e
       0.017911384 -0.14337379 -0.4778814 0.46344572
0000a0 1e 98 31 bf a6 ca 3a 3f 97 26 0c 3f 0c ef 9a bd
       -0.6937274 0.72965467 0.54746383 -0.07565126
0000b0 eb 40 43 3d f7 0b 89 bf 08 b2 9b bf ee 8b 7e 3e
       0.047669332 -1.0706776 -1.2163706 0.24858066
0000c0 72 d9 ae be 5f e6 0c be 0b e3 5c bf 4f 2a 72 3e
       -0.34150273 -0.13759755 -0.8628394 0.23648952
0000d0 34 67 fd bd ba 75 1f bf 2d 52 0d 3f 41 8c 26 bf
       -0.123732 -0.6228901 0.55203515 -0.6505776
0000e0 c1 2c 9b 3e aa a3 87 bf bd aa 26 bf f8 73 8d bf
       0.30307582 -1.0596821 -0.65104276 -1.1051016
0000f0 1e 2f 23 be 86 84 28 3d 8b 17 8b bf ee 83 95 bf
       -0.15935943 0.04114201 -1.086656 -1.1680887
000100 80 7a 60 be 65 29 03 3f b9 e7 04 bf 50 da b8 3e
       -0.2192173 0.5123504 -0.5191608 0.3610406
000110 92 29 84 be 34 b1 15 3f a7 8a d6 be 09 db 27 3e
       -0.25812966 0.58473516 -0.41902658 0.16392149
000120 b1 e6 9e bf a5 ee c4 be 39 4b 6d bf 18 7c 87 bf
       -1.2414151 -0.3846332 -0.92692906 -1.0584745
000130 53 73 39 3f 69 26 4a 3f 23 20 ab be 89 2b 8c bf
       0.72441596 0.7896486 -0.33422956 -1.0950786
000140 09 12 63 bf 1e 7c 7c bf 21 3e 28 3f de 46 2b 3f
       -0.88699394 -0.9862689 0.657198 0.6690501
000150 08 7c b0 3e 7a 28 13 bd a7 e6 9e bf 84 02 d2 3e
       0.34469628 -0.035927273 -1.241414 0.41017544
000160 62 cf 1a bf 4b d9 b8 bf
       -0.6047269 -1.4441313

l3.bias f4 [9]
000000 f6 56 d8 3c 9d 83 42 be 8b 23 0b 3c 54 1d 89 be
       0.026408654 -0.18995519 0.008492361 -0.26780188
000010 d9 7a 67 bb d8 1d b6 bc 73 44 ae be c3 18 5d 3e
       -0.0035321026 -0.022231027 -0.34036598 0.21591477
000020 da fe 91 bd
       -0.07128687
